app/src/main/assets/Backpropagation.tflite (tflite, 927108 bytes, 66 tensors)

Digits/Digit1/Conv/Conv2D_bias f4 [11]
0	0xbdcb016f	-0.09912383
1	0x3f278a77	0.65445656
2	0xbdbb5a6f	-0.09148108
3	0xbdbd7bf7	-0.0925216
4	0xbdc3b8e8	-0.095567524
5	0xbdcb8bc4	-0.099387676
6	0xbda1cae0	-0.079000235
7	0xbdb70e07	-0.089382224
8	0xbdc5eb46	-0.096640155
9	0xbda8352b	-0.08213266
10	0x3e381fb6	0.17980847

Digits/Digit1/Conv/weights f4 [11, 1, 1, 256]
0	0xbe216085	-0.15759476
1	0x3aba8c1f	0.0014232433
2	0x3d72399c	0.05913697
3	0xbdb90bd2	-0.09035458
4	0x3c0ab0e1	0.008465023
5	0x3e020fc8	0.12701333
6	0xbcd3869b	-0.02582102
7	0xbe143d93	-0.14476614
8	0xbe11abf8	-0.14225757
9	0xbdc6aa61	-0.09700466
10	0xbe296257	-0.1654142
11	0xbe11ca66	-0.14237365
12	0xbd88bb3b	-0.066763364
13	0xbbc1da14	-0.0059158895
14	0x3cdf8d78	0.027289137
15	0xbdb6f242	-0.08932926
16	0xbe272b9a	-0.16325226
17	0xbe075a1f	-0.13217972
18	0xbd0b2fbd	-0.033981074
19	0xbe273277	-0.16327845
20	0xbe26c2d6	-0.16285262
21	0x3c817b9f	0.015806017
22	0xbe0a7ef0	-0.13524985
23	0xbe0646cb	-0.13112943
24	0x3d1f3f7e	0.03887891
25	0x3deb19b9	0.114795156
26	0xbcc1de51	-0.023665579
27	0x3be78004	0.007064821
28	0xbd80e658	-0.062939346
29	0xbe093baf	-0.13401674
30	0xbe2171a3	-0.15766005
31	0xbd1e499d	-0.03864442
32	0xbddc43a9	-0.10755093
33	0xbdc6ab13	-0.097005986
34	0x3ba7e9d8	0.005124312
35	0xbe00d377	-0.12580667
36	0x3de39626	0.11112623
37	0xbdf73765	-0.120711125
38	0xbd5f7d60	-0.054562926
39	0xbe0f0789	-0.13967718
40	0x3dcb4e76	0.099270746
41	0xbdc39c62	-0.09551312
42	0xbc70e3c3	-0.01470274
43	0x3d4d6866	0.05014839
44	0xbdc2b6b6	-0.095075056
45	0xbb78f0d8	-0.003798535
46	0xbd4c7e05	-0.04992487
47	0xbdcbbe28	-0.09948379
48	0xbde7964e	-0.11307965
49	0xbdb0d63a	-0.086346105
50	0x3d70725a	0.058702804
51	0x3d9ad647	0.075604014
52	0x3de786d0	0.1130501
53	0x3aaf737e	0.001338586
54	0x3d0222ef	0.031771597
55	0x3df7cf56	0.12100093
56	0xbdb7cf55	-0.08975092
57	0x3d42e41c	0.047580823
58	0x3d5b209d	0.0534979
59	0xbcf9d4e0	-0.030497015
60	0xbe155a3d	-0.14585204
61	0xbdcef93e	-0.10106133
62	0x3d6ab55b	0.05730186
63	0xbe2f8886	-0.17141923
64	0x3d9c1ea2	0.0762303
65	0x3dcc3ac4	0.09972146
66	0x3dc31a3a	0.09526487
67	0x3da111c0	0.07864714
68	0xbde4b80f	-0.11167919
69	0xbe0f648a	-0.14003196
70	0x3d9453f5	0.07242576
71	0xbde46b5c	-0.1115329
72	0x3c9a2557	0.018816633
73	0xbd7839ab	-0.06060187
74	0xbd2e9d62	-0.04263056
75	0x3de38c0d	0.11110697
76	0x3d1e5e30	0.038664043
77	0xbe093c86	-0.13401994
78	0x3cdaaf67	0.026694966
79	0xbc219adf	-0.009863584
80	0xbb9c6299	-0.004772496
81	0x3a68d0b9	0.00088812
82	0x3cfa88d5	0.030582825
83	0x3c1afe13	0.00945999
84	0xbd5502ea	-0.052004732
85	0xbc8c946a	-0.017160613
86	0x3d9c3f74	0.0762929
87	0xbc2ea62a	-0.010659734
88	0xbe0ab61b	-0.1354603
89	0xbdeddf13	-0.11614814
90	0x3c1b5a12	0.009481924
91	0x3d274119	0.040833566
92	0xbdb2d023	-0.08731105
93	0x3cd73d7d	0.026274437
94	0x3d0936b1	0.033499423
95	0x3dfe4cf0	0.124170184
96	0xbda33ef0	-0.07970989
97	0xbdf03059	-0.117279716
98	0x3d82f1f3	0.063938044
99	0xbe068aef	-0.13138936
100	0x3dad6c42	0.08467914
101	0xbc3c7f68	-0.011504985
102	0xbd5309bb	-0.05152295
103	0x3d9c3bce	0.07628594
104	0xbdc891b8	-0.09793419
105	0xbdc5a33c	-0.09650275
106	0x3d45bc82	0.04827548
107	0xbd419111	-0.047257487
108	0xbddcdd99	-0.10784454
109	0xbcdefb4a	-0.027219433
110	0xbe1eef48	-0.15520966
111	0xbdd7713f	-0.10519647
112	0x3d94d90d	0.07267962
113	0xbe056761	-0.13027717
114	0xbe06a343	-0.13148217
115	0xbc5a5472	-0.013325797
116	0xbd8d0020	-0.068847895
117	0x3da544f0	0.080697894
118	0xbcaebfa7	-0.021331621
119	0x3dbfed08	0.09371382
120	0xbdf5f8d6	-0.12010352
121	0x3d2eafd4	0.04264815
122	0xbd97ac7b	-0.07405945
123	0x3d213b7d	0.039363373
124	0x3dbca008	0.09210211
125	0xbddcdfd8	-0.10784882
126	0x3e0292c4	0.12751299
127	0xbd1c6927	-0.03818622
128	0xbd4380af	-0.047730144
129	0xbdfc1ea7	-0.12310534
130	0xbe14cfb8	-0.14532363
131	0x3da07d23	0.07836368
132	0x3c3ada5a	0.011404598
133	0x3dc00dd7	0.0937764
134	0x3cca4457	0.02469079
135	0xbe0e8ac4	-0.13920122
136	0xbdf7be77	-0.12096875
137	0xbdb218e5	-0.086961545
138	0x3cdc3f7e	0.026885744
139	0xbd3b40eb	-0.045716207
140	0x3dc8e558	0.09809369
141	0x3c4d9818	0.012548469
142	0x3d0645a9	0.032781277
143	0xbd3a8080	-0.045532703
144	0xbd2619ca	-0.040551938
145	0x3dd552a1	0.10416151
146	0xbd201648	-0.03908375
147	0xbb82a66b	-0.0039871237
148	0x3e00bbe2	0.12571672
149	0xbdee9802	-0.11650087
150	0x3d1bae71	0.038008157
151	0x3d3d7d7e	0.046262257
152	0xbc5bb9fe	-0.013411043
153	0x3dddd74a	0.10832079
154	0xbe182c7f	-0.14860724
155	0x3a9c5eb1	0.0011930076
156	0xbc291ed2	-0.01032229
157	0xbd84c472	-0.064827815
158	0x3da53bcc	0.08068046
159	0x3d950110	0.07275593
160	0xbd8f8f80	-0.07009792
161	0x3d5bb3dc	0.053638324
162	0x3d1f1c88	0.03884557
163	0x3cd8addc	0.02645009
164	0xbe22f37b	-0.15913193
165	0x3d962568	0.073313534
166	0x3da9f1ea	0.082980946
167	0xbc4a5e31	-0.012351559
168	0x3cc30518	0.02380614
169	0x3d978e7d	0.07400224
170	0x3d5cf56c	0.05394499
171	0xbd0d227d	-0.03445672
172	0x3c9f7116	0.019463103
173	0xbb99fdcf	-0.004699446
174	0xbdc5ac32	-0.09651984
175	0x3d6d57a3	0.057944905
176	0x3d4be813	0.04978187
177	0xbe25e9f3	-0.16202526
178	0xbe20d882	-0.15707591
179	0xbdab6ac4	-0.08369973
180	0x3d0a2f7e	0.0337367
181	0xbe130c6b	-0.14360206
182	0x3db2c49e	0.08728908
183	0xbd34d477	-0.044147935
184	0x3dd86d9a	0.1056778
185	0xbd3707d5	-0.044685204
186	0x3d700d5a	0.058606483
187	0xbdb9eca4	-0.09078339
188	0xbe2497b5	-0.16073497
189	0x3d939fc8	0.0720821
190	0x3dbdbd12	0.09264578
191	0xbe03cbdb	-0.12870733
192	0x3c96bc9e	0.018400487
193	0x3dcf92ea	0.101354435
194	0xbd549a22	-0.051904805
195	0xbdbdc073	-0.092652224
196	0x3cd56bb7	0.026052339
197	0x3d33d4c3	0.043904077
198	0xbcad3d63	-0.021147436
199	0xbc86e3ab	-0.016465982
200	0xbe01b880	-0.12668037
201	0x3cc0f6b0	0.02355513
202	0xbc15d4ab	-0.009144942
203	0xbdb0793b	-0.08616873
204	0xbd9e0147	-0.077150874
205	0xbe22e928	-0.15909255
206	0x3d9a0dbe	0.07522152
207	0x3dc6ca5c	0.09706566
208	0x3d4e1f24	0.050322667
209	0xbde68601	-0.11256028
210	0x3d80cc28	0.0628894
211	0x3d97683b	0.07392927
212	0x3d8543d1	0.065070756
213	0xbd7be274	-0.06149526
214	0x3bf41d85	0.007449808
215	0x3df68dba	0.12038751
216	0xbe25bfdf	-0.16186474
217	0xbcd3d8b5	-0.02586017
218	0x3d51c60e	0.05121427
219	0xbe0fb134	-0.14032441
220	0xbc050c9b	-0.008120681
221	0x3deff35f	0.11716341
222	0xbda202f0	-0.079107165
223	0xbd15c622	-0.036565907
224	0x3d9ec89a	0.077531055
225	0xbab9dca0	-0.0014180131
226	0x3c7c743d	0.015408573
227	0xbdf2f10f	-0.118623845
228	0xbd856743	-0.06513836
229	0xbce64f84	-0.028114088
230	0x3d896829	0.0670932
231	0x3c993ec2	0.018706683
232	0x3d827721	0.06370378
233	0xbd32a48c	-0.043613955
234	0xbd153708	-0.036429435
235	0xbe2b2172	-0.16711977
236	0xbe122154	-0.14270526
237	0xbd9d2f8f	-0.07675087
238	0xbd8e8c76	-0.069603845
239	0x3deaf606	0.114727065
240	0xbe07360b	-0.1320421
241	0xbdc2d0a4	-0.09512451
242	0xbe042df5	-0.12908156
243	0x3c228760	0.009919971
244	0x3d099f03	0.03359891
245	0xbd5c1401	-0.053730015
246	0xbdf4c18e	-0.1195098
247	0xbd600c61	-0.054699305
248	0xbd141047	-0.036148336
249	0x3dc6ec4a	0.09713037
250	0xbd6da640	-0.058019876
251	0xbe31305b	-0.17303602
252	0xbdd54a45	-0.104145564
253	0x3da2558c	0.07926473
254	0x3dd750dd	0.1051347
255	0xbe0d9e8b	-0.1383001

Digits/Digit2/Conv/Conv2D_bias f4 [11]
0	0xbde016d8	-0.10941857
1	0xbdcde431	-0.1005329
2	0xbdbf09fa	-0.09328075
3	0x3eae3157	0.34022018
4	0x3e9b2666	0.30302733
5	0xbdef5eb9	-0.11687989
6	0xbde47c89	-0.11156566
7	0xbdb80b91	-0.08986581
8	0xbe057f0d	-0.13036747
9	0xbde7f881	-0.11326695
10	0x3e6ee5b3	0.23329811

Digits/Digit2/Conv/weights f4 [11, 1, 1, 256]
0	0xbe158435	-0.14601214
1	0x3dd380b0	0.103272796
2	0x3d99026b	0.07471164
3	0x3dea8af7	0.11452287
4	0xbe0d47fa	-0.13796988
5	0xbd5225b9	-0.051305506
6	0x3d4d772c	0.05016248
7	0xbcf114ce	-0.029428866
8	0xbd1f4490	-0.038883746
9	0xbd8a2db1	-0.06746996
10	0xbd8b910b	-0.06814774
11	0x3c62d02b	0.013843576
12	0xbd1f1360	-0.038836837
13	0x3d81734c	0.06320819
14	0xbd92be45	-0.07165197
15	0xbe140ea8	-0.14458716
16	0xbc1ace02	-0.00944853
17	0xbdf430fb	-0.11923405
18	0x3db94cf7	0.09047883
19	0xbdfc0ed3	-0.12307515
20	0x3dce2f6a	0.10067637
21	0x3ce45e82	0.027877096
22	0xbe319e44	-0.1734553
23	0xbde7a59f	-0.113108866
24	0x3dcab09f	0.09896969
25	0xbc1865f1	-0.0093016485
26	0x3d45d4ee	0.04829877
27	0x3c5ab6bb	0.01334923
28	0x3d06d100	0.03291416
29	0xbcf6f782	-0.030147318
30	0x3a3694fb	0.0006964949
31	0xbd43dd08	-0.047818214
32	0xbdce09e8	-0.10060483
33	0xbe0d9083	-0.13824658
34	0x3d84d2a3	0.06485488
35	0xbe294503	-0.16530232
36	0x3b5f0936	0.003403259
37	0x3c83486a	0.01602574
38	0x3daadd4f	0.083429925
39	0xbe022d48	-0.12712586
40	0x3ddc68f1	0.107622035
41	0xbdbf6440	-0.09345293
42	0x3d36757e	0.044545643
43	0x3da92b50	0.08260214
44	0xbe213cdd	-0.15745874
45	0xbce33154	-0.027733482
46	0xbe247d58	-0.1606344
47	0xbd2e5853	-0.0425647
48	0xbdbee60a	-0.0932122
49	0xbcbe98d0	-0.023266226
50	0x3ca252d9	0.019814895
51	0xbdb52f48	-0.08846909
52	0xbe0529ce	-0.13004228
53	0x3cc182af	0.023621885
54	0xbd562069	-0.052277002
55	0xbd4fc9ed	-0.05072968
56	0x3de230aa	0.11044438
57	0xbcba484b	-0.02273955
58	0x3da9d039	0.082916684
59	0xbd10086d	-0.035164285
60	0x3dcfb452	0.10141815
61	0xbdc5b9de	-0.09654592
62	0x3caaf77c	0.020869963
63	0x3dc68c92	0.096947804
64	0x3db64db6	0.08901541
65	0xbd07f50b	-0.033192676
66	0xbd3f734e	-0.046740822
67	0xbd8002ad	-0.0625051
68	0x3d8c7b35	0.068594374
69	0xbdc9e9fd	-0.09859083
70	0xbde8df94	-0.11370769
71	0xbd92458c	-0.07142171
72	0x3db40939	0.087908216
73	0x3dabcfa7	0.08389216
74	0x3dcdbb9f	0.100455515
75	0xbda325d5	-0.079662
76	0xbde0e58e	-0.10981284
77	0x3d6e98c5	0.05825116
78	0x3df30278	0.11865705
79	0x3d09588c	0.03353171
80	0xbcac3c10	-0.021024734
81	0x3d8e827e	0.06958483
82	0xbd8998ad	-0.06718574
83	0xbd882832	-0.06648292
84	0xbe009801	-0.12557985
85	0x3ce86505	0.028368482
86	0x3dfddfc5	0.12396196
87	0xbd781206	-0.060564063
88	0x3bacf1ee	0.0052778637
89	0xbd9fc7ee	-0.078018054
90	0x3d511d3c	0.05105327
91	0x3d81d3ed	0.0633925
92	0x3d765008	0.060134917
93	0xbdd2a730	-0.10285795
94	0x3dedbb52	0.11607994
95	0xbe276826	-0.16348323
96	0x3b76a3ef	0.0037634333
97	0x3d526122	0.051362164
98	0xbde23aed	-0.110463955
99	0xbe1892bc	-0.14899725
100	0x3dd30aaa	0.103047684
101	0xbd858e38	-0.06521267
102	0xbd897094	-0.06710926
103	0x3d7f737d	0.062365998
104	0x3c66bfef	0.0140838465
105	0xbde9ab1c	-0.1140959
106	0x3dc50f20	0.096220255
107	0xbd8c3dce	-0.06847726
108	0x3da7ea7a	0.0819902
109	0xbe1ae01f	-0.15124558
110	0x3dd47e9a	0.1037571
111	0xbe339e19	-0.17540778
112	0xbe0dca2b	-0.13846652
113	0x3d96d7fd	0.07365415
114	0x3cc831b4	0.024437763
115	0x3df1bd86	0.11803727
116	0xbe1d8a2a	-0.15384737
117	0x3dc03807	0.09385686
118	0x3d46b8bf	0.04851603
119	0xbe11646a	-0.14198461
120	0xbdb02e78	-0.08602613
121	0xbe25baa9	-0.16184486
122	0xbdf3ecbf	-0.1191039
123	0xbe07d03c	-0.13263029
124	0xbdd76590	-0.105174184
125	0x3cdf1e8f	0.027236251
126	0x3d013c7e	0.03155183
127	0xbd3f5e66	-0.046720885
128	0xbe1a3a1f	-0.15061234
129	0xbe2def00	-0.16985703
130	0xbb2aae74	-0.0026043924
131	0x3df7e263	0.12103727
132	0x3dbb8516	0.091562435
133	0x3cfd4803	0.030918127
134	0x3dd512d5	0.104039825
135	0xbd498a1a	-0.04920397
136	0x3de20722	0.11036517
137	0xbdbd92cd	-0.09256516
138	0xbd8375c3	-0.06418946
139	0xbda578f1	-0.08079708
140	0xbdf090e3	-0.11746385
141	0xbdf79075	-0.120881
142	0x3c83455f	0.01602429
143	0xbdb629d3	-0.08894696
144	0xbd123b85	-0.035701293
145	0x3d247444	0.040149942
146	0x3dbc7b57	0.09203213
147	0x3c2c1486	0.01050294
148	0xbe116976	-0.14200386
149	0xbe182765	-0.14858778
150	0xbcba9332	-0.022775266
151	0x3d565606	0.052328132
152	0xbd08a963	-0.033364665
153	0xbe1fc3a4	-0.15601975
154	0xbe33570f	-0.17513679
155	0x3d9a2b29	0.075277634
156	0xbe112880	-0.14175606
157	0xbdfc1e6c	-0.1231049
158	0xbce20175	-0.027588585
159	0xbdbe6b6d	-0.092978336
160	0x3d9d6c7e	0.07686709
161	0x3caf3110	0.0213857
162	0xbdabd7ae	-0.08390747
163	0xbd083676	-0.033255063
164	0xbc19ca76	-0.009386649
165	0xbdec58f9	-0.11540408
166	0xbe128792	-0.14309528
167	0xbdf85fcd	-0.121276475
168	0xbcb2d0e5	-0.021828124
169	0x3d859a6c	0.06523594
170	0xbe00685d	-0.12539811
171	0xbdf86f7b	-0.12130638
172	0xbd0263d2	-0.031833477
173	0xbd945bc2	-0.07244064
174	0xbdab17aa	-0.08354123
175	0x3c5b025f	0.0133672645
176	0xbe103857	-0.14083992
177	0xbde42316	-0.111395046
178	0x3d87ae84	0.06625083
179	0xbe004f9c	-0.12530369
180	0xbdfcfe12	-0.123531476
181	0x3c86904f	0.016426234
182	0xbd222813	-0.039589
183	0xbda57d70	-0.08080566
184	0x3d9c450b	0.076303564
185	0xbd25d52f	-0.04048651
186	0xbdc14cba	-0.094384626
187	0x3d892269	0.06696016
188	0xbdf610ec	-0.12014946
189	0xbe0f2928	-0.13980544
190	0xbe09fc5a	-0.1347517
191	0xbd7ce179	-0.061738465
192	0x3de2bc36	0.11071055
193	0xbe118a53	-0.14212923
194	0xbd902019	-0.07037372
195	0xbcc751bf	-0.024330972
196	0x3d179b3d	0.03701328
197	0xbd57dd86	-0.052701496
198	0xbe3493ad	-0.17634459
199	0x3d833ed2	0.064084664
200	0x3db1b822	0.08677699
201	0xbbcd429f	-0.0062640454
202	0x3da95fbe	0.082702145
203	0xbdd6d92a	-0.104906395
204	0xbe00d7d5	-0.12582333
205	0xbe2ad0dc	-0.16681236
206	0x3cf725e1	0.03016943
207	0x3d4c624a	0.049898423
208	0x3dbc6b79	0.09200186
209	0x3dd4d3a4	0.1039193
210	0x3d880075	0.06640712
211	0x3d20aaa8	0.03922525
212	0xbe04e6a2	-0.12978604
213	0x3bf0eae6	0.007352221
214	0xbdc5f2d4	-0.096654564
215	0xbc7dba0f	-0.015486254
216	0xbcf4ea09	-0.029896753
217	0xbde05535	-0.10953752
218	0xbe009b4d	-0.12559243
219	0x3defa255	0.11700884
220	0x3d6e8975	0.058236558
221	0xbcf79e62	-0.03022689
222	0xbe315cf4	-0.17320615
223	0x3d8ad6be	0.0677924
224	0xbd952198	-0.07281798
225	0xbda0861b	-0.078380786
226	0xbde7dee6	-0.113218114
227	0xbce9bdda	-0.028532911
228	0xbd9e0e1a	-0.077175334
229	0x3d63f15a	0.055650093
230	0xbda1c289	-0.07898433
231	0xbdf05f86	-0.1173697
232	0x3d3f7f05	0.046751995
233	0xbd1011ab	-0.0351731
234	0x3dbb8150	0.09155524
235	0x3d03ba4b	0.032160085
236	0xbdbc9cf5	-0.09209625
237	0x3d9a3528	0.0752967
238	0xbe121ded	-0.14269228
239	0x3d8788a5	0.0661786
240	0xbe1e4e0e	-0.15459463
241	0x3df121e5	0.11774043
242	0xbcb2e9cf	-0.021840004
243	0xbd753189	-0.059861694
244	0x3d8e4744	0.069471866
245	0xbdc384a8	-0.095467865
246	0xbb8ff1dc	-0.0043928456
247	0xbddba788	-0.107253134
248	0xbe0bfe07	-0.13671122
249	0x3d85a7a6	0.06526117
250	0x3ac98284	0.001537398
251	0x3daafc41	0.08348895
252	0xbd0b154c	-0.033955857
253	0xbd27568f	-0.040854033
254	0xbdaf3115	-0.085542835
255	0x3cffb1fc	0.0312128

Digits/Digit3/Conv/Conv2D_bias f4 [11]
0	0x3f37cc86	0.71796453
1	0xbddb68cd	-0.107133485
2	0xbdcfd2e2	-0.101476446
3	0xbde1aa42	-0.11018802
4	0xbdc744d4	-0.09729925
5	0xbdc02a75	-0.09383098
6	0xbdb82f32	-0.08993377
7	0xbd9b6c40	-0.075890064
8	0xbdc03ab6	-0.09386198
9	0x3e26342e	0.16230842
10	0xbdcac666	-0.09901123

Digits/Digit3/Conv/weights f4 [11, 1, 1, 256]
0	0xbe16ccf3	-0.1472662
1	0x3c988d0b	0.018621942
2	0x3e67b72d	0.2262847
3	0x3e66015b	0.22461455
4	0x3e4a3f6c	0.19750756
5	0x3dd071b2	0.10177936
6	0xbe41ddf3	-0.18932323
7	0xbc5aeeb0	-0.013362572
8	0x3e306bd7	0.17228638
9	0x3e3a1c2f	0.18174814
10	0x3e6766fa	0.22597876
11	0x3dbdcda4	0.092677385
12	0x3e6aea59	0.22940959
13	0x3e0653e5	0.1311794
14	0x3d4a323c	0.049364313
15	0xbe9fba79	-0.31196955
16	0x3d7b1ea7	0.06130853
17	0xbe6642ee	-0.22486469
18	0x3ddc3c5f	0.10753702
19	0x3c90e523	0.017687386
20	0x3e40c3de	0.18824717
21	0x3e4971fc	0.19672388
22	0x3e1e008c	0.15429896
23	0xba430db8	-0.0007440704
24	0x3d68d8b4	0.05684729
25	0xbe098088	-0.13427937
26	0xbe338993	-0.17532949
27	0x3db661ce	0.089053735
28	0x3d719709	0.05898193
29	0xbc65d2be	-0.014027296
30	0xbe53d575	-0.20686896
31	0x3e02e5a8	0.1278292
32	0x3e8e0fbf	0.27746388
33	0x3e006999	0.12540282
34	0x3c260adc	0.010134425
35	0x3e16e3f6	0.14735398
36	0x3e67a82c	0.22622746
37	0x3d7e0f96	0.062026583
38	0xbe876149	-0.2644141
39	0x3db2d0b3	0.087312125
40	0xbd93ae5a	-0.07210989
41	0xbe8592dc	-0.26088607
42	0x3e1d88d8	0.15384233
43	0x3d8b4eba	0.06802125
44	0x3e2e4999	0.17020263
45	0xbe7318da	-0.23739949
46	0xbe67daf7	-0.22642122
47	0xbde8ad8f	-0.11361229
48	0x3e84d526	0.2594387
49	0x3e85a932	0.26105648
50	0x3de0c215	0.10974518
51	0xbe4e600a	-0.20153823
52	0x3e24429d	0.16041036
53	0x3ba838cf	0.0051337252
54	0x3dc697c6	0.09696917
55	0x3e089fac	0.1334216
56	0x3b594845	0.0033154648
57	0x3db1c191	0.08679498
58	0x3da1a580	0.07892895
59	0x3e407beb	0.18797271
60	0x3e2e6759	0.17031612
61	0xbe95be7a	-0.29246885
62	0xbea8c86d	-0.32965413
63	0x3e163f59	0.14672603
64	0x3d60c0b4	0.054871276
65	0x3e2f4141	0.17114736
66	0x3e0786ff	0.1323509
67	0x3e0408ff	0.12894057
68	0xbe9892da	-0.2979954
69	0xbd3a6e50	-0.04551536
70	0x3e2c4564	0.16823345
71	0xbe11d952	-0.14243057
72	0x3e3ff80f	0.1874697
73	0x3e9575eb	0.29191527
74	0x3e6d470c	0.23171633
75	0x3ddad91e	0.10685943
76	0x3e68b4f9	0.22725286
77	0x3d3992bf	0.045305964
78	0xbe8e8dc9	-0.27842548
79	0xbe8ee8da	-0.27912027
80	0x3e58e45f	0.21180867
81	0x3c95219f	0.018204508
82	0xbd8c29bb	-0.06843897
83	0xbe1f8e30	-0.15581584
84	0xbddb4812	-0.10707106
85	0x3dca9371	0.098914035
86	0xbe551fb8	-0.20812881
87	0x3e7a1f49	0.24425997
88	0x3e28e155	0.16492207
89	0x3cafb371	0.021447869
90	0x3d43cf7f	0.047805306
91	0xbe65b8c0	-0.22433758
92	0x3e16d87d	0.14731021
93	0xbd0e24ea	-0.034703173
94	0x3e4b14ca	0.19832149
95	0x3d2498ad	0.040184665
96	0xbca14001	-0.01968384
97	0xbdf29560	-0.11844897
98	0xbe3d69eb	-0.18497436
99	0xbe19e553	-0.15028886
100	0x3de6face	0.11278306
101	0x3e0aa23a	0.13538447
102	0x3daecc12	0.08535017
103	0x3d9a5480	0.07535648
104	0x3e68ee1f	0.22747086
105	0x3df6f07c	0.120575875
106	0x3e846151	0.25855497
107	0x3e2bdafb	0.16782753
108	0x3e34b6e4	0.17647892
109	0x3e18d6c6	0.1492568
110	0x3e2f0b53	0.17094164
111	0x3dfe0a0b	0.12404259
112	0x3e021862	0.12704614
113	0x3e830f7e	0.25597757
114	0x3de8da2e	0.113697395
115	0x3e0727ce	0.13198778
116	0xbd9c4bbf	-0.07631635
117	0x3e005f8e	0.12536451
118	0x3e171daa	0.1475741
119	0x3e64769a	0.22310868
120	0x3e32c395	0.17457421
121	0x3e0d3080	0.13788033
122	0xbea47eff	-0.3212814
123	0x3e384230	0.17993999
124	0x3e242b46	0.16032133
125	0x3e7925ce	0.24330828
126	0xbe6f6ac9	-0.23380579
127	0x3dc836de	0.0977609
128	0x3e3522ac	0.17689008
129	0xbd15b98d	-0.03655391
130	0x3e999632	0.29997402
131	0x3d24fbcd	0.0402792
132	0x3cef8ef4	0.02924297
133	0x3e456c7e	0.19279668
134	0x3e04a2d3	0.12952738
135	0x3de38de7	0.1111105
136	0x3d9641e4	0.073367864
137	0xbea3bdbb	-0.3198069
138	0xbe35a636	-0.17739186
139	0x3e0b74ea	0.13618818
140	0x3eb3c392	0.35110146
141	0x3d522f15	0.051314432
142	0x3e71e521	0.23622562
143	0xbd471738	-0.048606128
144	0x3e254a4d	0.16141625
145	0x3e374819	0.17898597
146	0x3a692c17	0.00088948145
147	0x3e3aaeff	0.18230818
148	0xbe58d4f5	-0.21174987
149	0x3c37c9d5	0.011217554
150	0xbe7b05b6	-0.24513897
151	0xbe3c0b9a	-0.183638
152	0xbda15b04	-0.07878688
153	0xbe2bba1d	-0.16770215
154	0x3e1e8a4e	0.15482447
155	0xbe1ea0df	-0.15491055
156	0x3dca4a8c	0.098775
157	0x3e3adf88	0.18249333
158	0xbe3052f4	-0.17219144
159	0x3e96082d	0.29303113
160	0x3e1be9fb	0.15225975
161	0xbcf98cfc	-0.030462734
162	0x3e60ab65	0.21940382
163	0x3e636457	0.22206245
164	0x3da03c0b	0.07823952
165	0x3e884fe5	0.26623455
166	0x3e2cd2fb	0.16877358
167	0x3cd2698c	0.025685094
168	0x3ea7afbd	0.32751265
169	0x3e86dbce	0.26339573
170	0x3dfeae54	0.12435594
171	0x3e172ced	0.14763232
172	0xbc22b4bf	-0.009930789
173	0xbd1d0e1e	-0.03834354
174	0x3d0349ce	0.032052808
175	0xbd7a8855	-0.061165173
176	0xbc1204e6	-0.008912301
177	0x3e86aa42	0.2630177
178	0x3d8b19a6	0.067920014
179	0x3e0c91f0	0.13727546
180	0x3db341a5	0.08752755
181	0xbc9e1f89	-0.019302147
182	0xbe83605f	-0.25659463
183	0x3e8b604d	0.2722191
184	0x3e37c62a	0.17946687
185	0x3e346a7d	0.17618747
186	0x3d9ec8b4	0.07753125
187	0x3e6b1cb9	0.22960176
188	0xbe4ad3b6	-0.19807324
189	0x3dc11ed4	0.09429708
190	0x3dda53ef	0.1066054
191	0x3ea759c5	0.32685676
192	0x3e03debd	0.12877937
193	0x3e21bfbb	0.15795796
194	0x3e58b990	0.21164536
195	0xbe14deed	-0.14538164
196	0x3e9939e7	0.29926988
197	0x3e2af82d	0.16696234
198	0x3d4fac8c	0.050701663
199	0x3e5a610e	0.21326086
200	0xbe973d86	-0.29539126
201	0x3d064940	0.0327847
202	0x3d69b2be	0.057055227
203	0x3e1d1e97	0.153437
204	0x3d43cfdb	0.04780565
205	0x3dae649c	0.085152835
206	0xbe976c51	-0.29574826
207	0x3e4bc204	0.1989823
208	0x3ecdeb3f	0.4021854
209	0x3ddaf444	0.10691121
210	0x3d804681	0.062634476
211	0x3cfe3584	0.031031378
212	0xbd9d8410	-0.076912045
213	0x3e0d6b53	0.13810472
214	0x3e5e0b7f	0.21684073
215	0xbe18c40c	-0.14918536
216	0x3e805c25	0.250703
217	0x3e5244e2	0.20534089
218	0x3e3a1684	0.18172652
219	0x3df5e32b	0.120062195
220	0x3cb5586c	0.02213689
221	0x3e920f38	0.28527236
222	0x3e67a94c	0.22623175
223	0x3e2c1b00	0.16807175
224	0xbe021bbf	-0.12705897
225	0xbe5e6b79	-0.21720685
226	0xbe194848	-0.1496898
227	0x3dae59be	0.08513211
228	0x3ee7293c	0.45148647
229	0x3e0c2e19	0.1368946
230	0xbe2bd04b	-0.16778676
231	0xbe775259	-0.24152507
232	0xbe65240e	-0.22377035
233	0x3d036e62	0.03208769
234	0x3e510167	0.20410691
235	0xbd97650c	-0.0739232
236	0x3d8d24e6	0.068918034
237	0xbea7a427	-0.32742426
238	0xbe74da59	-0.23911418
239	0x3e18fab1	0.14939381
240	0x3e1b0912	0.15140179
241	0x3dfb805a	0.122803405
242	0x3e546da7	0.20744954
243	0x3e258257	0.16163002
244	0xbdef79e7	-0.11693173
245	0x3e58252c	0.2110793
246	0x3e811086	0.2520792
247	0xbe301d21	-0.17198612
248	0x3e9d4601	0.3071747
249	0x3da03c10	0.07823956
250	0x3e7f1b93	0.24912862
251	0xbda5ba0b	-0.080921255
252	0x3e3a7df3	0.18212108
253	0x3e15dc29	0.14634766
254	0xbe650795	-0.22366174
255	0x3d808934	0.062761694

Digits/Digit4/Conv/Conv2D_bias f4 [11]
0	0x3ea95867	0.33075258
1	0xbcdfeffd	-0.027336115
2	0x3dace888	0.08442789
3	0xbe2685a0	-0.16261911
4	0xbe20792c	-0.15671223
5	0xbe0f8f9f	-0.14019631
6	0x3b94c8a2	0.004540519
7	0x3e4efc8b	0.20213525
8	0x3e9d5d6a	0.30735332
9	0xbe72f165	-0.23724897
10	0xbe45cd20	-0.1931653

Digits/Digit4/Conv/weights f4 [11, 1, 1, 256]
0	0xbe7fd105	-0.24982078
1	0xbd240255	-0.040041286
2	0x3e5113b4	0.20417672
3	0x3cd8ee05	0.026480684
4	0x3ea6bc5a	0.32565576
5	0x3da7aaab	0.08186849
6	0xbe2a39d8	-0.16623628
7	0xbd7caae9	-0.06168643
8	0xbd8b2572	-0.067942515
9	0xbde2b6ee	-0.11070047
10	0x3e508afd	0.2036552
11	0x3ea3d51d	0.3199853
12	0xbe89627e	-0.26832956
13	0x3e151037	0.14556967
14	0x3d8cd204	0.06875995
15	0xbe9ff01a	-0.3123787
16	0x3d98c785	0.0745993
17	0xbe7055e7	-0.23470269
18	0x3cc2b1b5	0.023766378
19	0xbdd9192e	-0.10600506
20	0x3cf834ad	0.030298555
21	0x3d9e8dba	0.07741876
22	0xbcabe2e6	-0.020982217
23	0xbd9f5ed6	-0.077817604
24	0x3e238aa6	0.15970859
25	0xbe7f89c1	-0.24954893
26	0xbe04311a	-0.12909356
27	0x3dd9cf38	0.10635227
28	0xbe4996e7	-0.19686471
29	0xbea74706	-0.32671374
30	0xbcd6b111	-0.026207479
31	0x3d028ff4	0.031875566
32	0x3dfb8943	0.1228204
33	0xbe06d574	-0.13167363
34	0xbd904cd3	-0.07045903
35	0x3ece9a54	0.40352118
36	0x3e1313bd	0.14362998
37	0x3e58d521	0.21175052
38	0xbe5b39a8	-0.21408713
39	0xbe4237ad	-0.18966551
40	0xbe9135bf	-0.28361318
41	0xbe9d5f98	-0.30736995
42	0x3d69473b	0.056952696
43	0xbdfc6d6b	-0.12325557
44	0x3e90d2ac	0.2828573
45	0xbe830870	-0.25592375
46	0xbe884559	-0.26615408
47	0xbe64045a	-0.22267285
48	0x3e6ae4a8	0.22938788
49	0xbe869d23	-0.2629176
50	0x3d9bbfcd	0.076049425
51	0xbe88d26c	-0.2672304
52	0x3e8269b0	0.25471258
53	0xbdc0b214	-0.09408966
54	0xbd891e14	-0.0669519
55	0x3df7855a	0.12085982
56	0xbe6d7667	-0.23189698
57	0x3cd118fc	0.025524609
58	0x3d458236	0.048219882
59	0x3dfc314c	0.1231409
60	0xbed719ba	-0.42011815
61	0xbe37759e	-0.17915961
62	0xbe6e31c6	-0.23261175
63	0x3f051bf6	0.5199579
64	0x3de32cc7	0.11092525
65	0x3e24dfea	0.16101041
66	0x3e685721	0.22689487
67	0x3e17d878	0.1482867
68	0xbe2b28cd	-0.16714783
69	0x3da33280	0.079686165
70	0x3d3c7911	0.046013895
71	0xbe29f6bb	-0.16598026
72	0x3ebc319c	0.367566
73	0xbec3ec44	-0.38266194
74	0x3cfe29e2	0.03102583
75	0x3e84dc42	0.25949293
76	0x3e3312bb	0.17487614
77	0xbc832eaf	-0.016013471
78	0xbdb0cc51	-0.0863272
79	0x3d46d7b4	0.048545554
80	0x3e442a63	0.19156794
81	0x3b550853	0.0032506182
82	0xbd6c601f	-0.057708856
83	0x3cc79fc5	0.024368176
84	0xbeac1577	-0.33610126
85	0xbd049ca5	-0.03237595
86	0xbe87157d	-0.26383582
87	0x3d0b11f2	0.03395266
88	0xbd89f5cf	-0.067363374
89	0x3bbeef45	0.005826863
90	0x3d1ae98d	0.037820388
91	0xbde5d70b	-0.11222657
92	0x3e068384	0.13136107
93	0xbd635e3b	-0.055509787
94	0xbc995495	-0.01871709
95	0xbdf8d391	-0.12149728
96	0x3cc7c362	0.024385158
97	0xbe252700	-0.16128159
98	0xbd8c1991	-0.06840814
99	0xbe943f2b	-0.28954443
100	0xbb69fbda	-0.0035703094
101	0x3ef9deb3	0.4880272
102	0x3ebf7e98	0.3740127
103	0x3df466c4	0.119336635
104	0x3d36c000	0.0446167
105	0x3e596ac8	0.2123214
106	0x3ebdf73d	0.3710269
107	0x3d0b72dd	0.03404509
108	0x3e94f9aa	0.2909673
109	0x3d803779	0.062605806
110	0x3e8b93ff	0.2726135
111	0x3e681a88	0.22666371
112	0x3dfd3d60	0.12365222
113	0x3e5ba5e7	0.21450005
114	0xbcb7d301	-0.022439482
115	0x3dd77681	0.1052065
116	0x3d87a198	0.066226184
117	0xbe754ffe	-0.23956296
118	0x3e2900a5	0.16504152
119	0x3e35057c	0.17677873
120	0xbe572881	-0.21011545
121	0x3ec3f924	0.38276017
122	0xbe2b4dff	-0.16728972
123	0x3dbda5be	0.092601284
124	0x3e098c5a	0.13432446
125	0x3e160f52	0.14654282
126	0xbe95d53d	-0.2926425
127	0xbcb06697	-0.021533294
128	0x3e214dc3	0.1575232
129	0xbd3a6724	-0.04550852
130	0x3e946f91	0.28991368
131	0x3d313012	0.043258734
132	0xbd166ae1	-0.03672302
133	0x3f00176e	0.5003575
134	0x3e440669	0.1914307
135	0x3bd548e3	0.006508933
136	0xbcad4777	-0.021152241
137	0xbec2471f	-0.37944886
138	0x3a6c1d57	0.00090070575
139	0x3ea2caa0	0.31795216
140	0xbc934afa	-0.017980088
141	0xbc893098	-0.016746804
142	0x3eac8a37	0.336992
143	0xbbda2b92	-0.006658026
144	0x3e6bbe7d	0.23021884
145	0x3d861c5b	0.06548377
146	0xbe89f66a	-0.26945812
147	0x3eb9ec3e	0.3631305
148	0xbcbc2630	-0.022967428
149	0x3d9ce6f0	0.07661235
150	0xbe913bb1	-0.28365853
151	0xbdbdb817	-0.09263628
152	0xbe33f2a9	-0.17573036
153	0xbe81d9e1	-0.2536154
154	0xbd83fd15	-0.06444756
155	0xbe72a1eb	-0.2369458
156	0x3cebc358	0.02877967
157	0x3d5a7b21	0.05334008
158	0xbda51d9c	-0.08062288
159	0x3dbae496	0.091256306
160	0x3f008283	0.50199145
161	0xbe23ea0d	-0.16007252
162	0x3e52ce95	0.20586617
163	0x3e66a88b	0.22525232
164	0xbdb41d35	-0.08794633
165	0x3e57ee93	0.21087103
166	0xbbef68f3	-0.007306212
167	0x3ca67f86	0.02032448
168	0x3e5fe594	0.21864921
169	0x3dbc922c	0.092075676
170	0x3e277a0b	0.1635515
171	0x3d909478	0.07059568
172	0xbdaa04a9	-0.0830167
173	0x3e382ee7	0.17986642
174	0x3cacb11c	0.021080546
175	0xbe97f411	-0.29678395
176	0x3e8a93ba	0.2706583
177	0x3e822daa	0.25425464
178	0x3eecf922	0.46283823
179	0x3da50e1a	0.0805933
180	0x3ddca2b8	0.10773224
181	0x3e81e31a	0.25368577
182	0xbe9224da	-0.2854374
183	0x3e2c042d	0.16798468
184	0xb8947d34	-7.080511e-05
185	0xbec96609	-0.3933566
186	0xbdf1db81	-0.11809445
187	0x3bb56d35	0.0055367
188	0xbd47c5e6	-0.048772715
189	0x3d7728f2	0.060341783
190	0xbc0e6acd	-0.0086924555
191	0x3db409c6	0.08790927
192	0x38d70ee6	0.00010254774
193	0x3c958345	0.01825107
194	0xbe999280	-0.29994583
195	0x3e25de4e	0.16198084
196	0x3e2d496d	0.16922541
197	0xbeab524e	-0.3346123
198	0x3d8c2d86	0.068446204
199	0x3e90c55b	0.2827557
200	0xbe4adfc0	-0.19811916
201	0x3cc5c144	0.024140008
202	0x3c3d7217	0.011562846
203	0x3d5f445e	0.05450856
204	0xbe0ba059	-0.13635387
205	0xbdae424f	-0.08508741
206	0xbe174e23	-0.147759
207	0x3e2e3ab9	0.17014588
208	0x3ea15722	0.3151179
209	0x3d6010b5	0.054703433
210	0xbed5ced5	-0.41759363
211	0x3d192178	0.037385434
212	0x3e2dacd1	0.16960455
213	0xbe44bdf7	-0.19213091
214	0x3ded9201	0.11600114
215	0x3dbf6311	0.09345067
216	0x3e3406de	0.17580745
217	0x3e7f6fb6	0.24944958
218	0x3e2edce2	0.17076448
219	0x3e128549	0.14308657
220	0x3dc38fa9	0.095488854
221	0x3e9f7139	0.3114107
222	0x3e0b2c5e	0.13591143
223	0xbe27639a	-0.16346589
224	0xbe002f84	-0.12518126
225	0x3d4461f7	0.04794499
226	0xbb4c98d3	-0.003121902
227	0xbddeddc9	-0.10882146
228	0x3ead8dce	0.3389725
229	0x3d5ff29f	0.05467474
230	0xbe235048	-0.15948594
231	0xbd8f2239	-0.06988949
232	0xbe98d0a9	-0.29846695
233	0x3de93345	0.11386732
234	0x3dfd79bd	0.12376735
235	0xbe5a3270	-0.21308303
236	0x3dac9557	0.08426922
237	0xbeb6fe17	-0.3574073
238	0xbd662dbd	-0.056195963
239	0x3d9e8043	0.07739308
240	0xbe0db026	-0.13836727
241	0xbc98fdb2	-0.018675659
242	0x3d6ea494	0.058262423
243	0x3f2789e0	0.65444756
244	0xbd7e7dac	-0.06213157
245	0xbe2a4ca3	-0.16630797
246	0x3e3eb8f6	0.18625244
247	0xbebc9059	-0.3682888
248	0x3cf7d426	0.030252527
249	0x3e6ffbd1	0.23435904
250	0x3e010257	0.12598549
251	0xbd0e10ae	-0.034683876
252	0x3e436acc	0.19083709
253	0x3dbead5f	0.09310412
254	0x3d8b0f6f	0.06790053
255	0x3e06d9db	0.13169043

Digits/Digit5/Conv/Conv2D_bias f4 [11]
0	0x3e873c07	0.26412985
1	0x3f2129aa	0.629542
2	0xbdc9361b	-0.09824773
3	0xbdd53abd	-0.10411594
4	0xbdbeadb4	-0.09310475
5	0xbdb302dd	-0.087407805
6	0xbe054cd3	-0.13017587
7	0xbdd14f75	-0.10220233
8	0xbdcf2303	-0.101141
9	0xbd67c751	-0.056586567
10	0xbddf3140	-0.108980656

Digits/Digit5/Conv/weights f4 [11, 1, 1, 256]
0	0x3f016da3	0.5055792
1	0x3ebc1788	0.36736703
2	0x3e19e21c	0.1502766
3	0x3db22ea4	0.08700302
4	0x3e3c80d4	0.18408519
5	0x3e9ec478	0.3100927
6	0x3e0c1116	0.13678393
7	0x3df48d91	0.11941064
8	0xbd277294	-0.040880755
9	0x3e2500b9	0.16113557
10	0x3e4bcb58	0.19901788
11	0x3d4a51c4	0.049394384
12	0x3e36af40	0.1784029
13	0x3e81f32a	0.25380832
14	0x3dc141dd	0.094363905
15	0xbc875185	-0.016518364
16	0xbca49510	-0.02009061
17	0x3dd9e30d	0.106390096
18	0xbcae6bfe	-0.021291729
19	0x3db979d1	0.09056438
20	0x3e1d9dbd	0.15392204
21	0x3e488d9f	0.19585274
22	0x3c66957f	0.014073729
23	0xbc503635	-0.012708236
24	0x3d1faa1f	0.0389806
25	0x3dbb9864	0.091599256
26	0x3e1d5197	0.15363155
27	0xbc909d11	-0.01765302
28	0x3da4a2e2	0.0803888
29	0x3e314c6d	0.1731431
30	0x3e8acd23	0.27109632
31	0x3e95dd66	0.29270476
32	0x3e5519c0	0.20810604
33	0x3ee8679a	0.45391542
34	0x3ee45568	0.4459641
35	0x3dd8b1c1	0.10580779
36	0x3ef854a2	0.4850207
37	0x3f016bdf	0.50555223
38	0x3f06e0dc	0.5268686
39	0x3ef61a79	0.48067072
40	0x3a3315ce	0.0006831557
41	0x3dd8d902	0.10588266
42	0x3e75cab5	0.24003108
43	0x3db48c05	0.08815769
44	0x3d3f6ee3	0.04673661
45	0x3d9dc8dd	0.07704327
46	0x3cc1f191	0.023674758
47	0x3e807a02	0.25093085
48	0x3e134fbb	0.14385884
49	0x3eccf1f4	0.40028346
50	0x3d454ebe	0.048170798
51	0x3d8966e4	0.06709078
52	0x3e627f9b	0.2211899
53	0x3d749661	0.059713725
54	0x3d9c5b26	0.07634573
55	0xbe1596d5	-0.14608319
56	0x3e044369	0.1291634
57	0xbda88bcb	-0.082297884
58	0x3c9e46f3	0.01932094
59	0x3def2680	0.11677265
60	0x3eee6e7f	0.46568677
61	0x3e94a087	0.29028723
62	0x3e147fc6	0.14501867
63	0x3e70a7c8	0.23501503
64	0x3e42966a	0.19002691
65	0x3e85c715	0.2612845
66	0x3e14d401	0.14533998
67	0x3ee10017	0.4394538
68	0x3e2e068b	0.16994683
69	0x3e9b5f78	0.30346274
70	0x3e82fdde	0.2558431
71	0x3e55c792	0.20876911
72	0x3d8bb1b8	0.068210065
73	0x3eef1348	0.46694398
74	0x3dea6b2a	0.11446221
75	0x3e13b91a	0.1442608
76	0x3eee9b43	0.4660283
77	0x3dc7e3a7	0.09760218
78	0x3e113bf5	0.14183028
79	0x3dda4e9e	0.10659526
80	0x3ef82877	0.48468372
81	0x3e679cee	0.22618458
82	0x3e424604	0.18972021
83	0x3cc5f7b1	0.02416596
84	0x3e500297	0.20313488
85	0x3de0e7d1	0.109817155
86	0xbd0d3d49	-0.034482274
87	0xbc8744de	-0.01651233
88	0xbd5ecc47	-0.054394033
89	0x3d5cb667	0.05388489
90	0x3d048a82	0.032358654
91	0x3ed1525c	0.40883148
92	0x3e4abc20	0.19798326
93	0x3dc2128a	0.09476192
94	0xbcbda3ab	-0.023149332
95	0x3ea70a92	0.32625252
96	0x3ede5065	0.4342071
97	0x3c22d9be	0.009939609
98	0x3cb97f85	0.022643814
99	0x3e97da6c	0.2965883
100	0x3dd11a6c	0.10210118
101	0x3c997ecd	0.018737221
102	0x3e07def7	0.13268648
103	0x3f09d262	0.53836644
104	0x3ed428f3	0.41437492
105	0x3d86107c	0.06546113
106	0x3d4e51b1	0.050370876
107	0x3e8716e2	0.26384646
108	0x3cc600f2	0.024170373
109	0x3e354692	0.17702702
110	0x3ebb57dc	0.3659047
111	0x3e26eeb5	0.16301997
112	0x3f00d44a	0.5032393
113	0x3dbd3261	0.09238125
114	0x3dfcb23b	0.12338682
115	0x3e49dd4a	0.19713321
116	0x3a9dc850	0.0012037847
117	0x3d93e8c1	0.07222129
118	0x3e3fb022	0.18719533
119	0x3e208d4b	0.15678899
120	0x3e47b8ce	0.19504091
121	0x3dfc0626	0.1230586
122	0x3d8eb2ea	0.06967719
123	0x3e86d8fb	0.26337418
124	0x3db0658d	0.08613119
125	0x3da7b1f7	0.08188241
126	0xb7eba333	-2.8090179e-05
127	0x3f1aa664	0.6041014
128	0x3e28a786	0.16470155
129	0x3ec54181	0.38526538
130	0x3dd872e0	0.10568786
131	0x3ea453a2	0.32095057
132	0x3dd82fc7	0.10555988
133	0x3e93a896	0.28839558
134	0x3e4b45c9	0.1985084
135	0x3bfbef79	0.0076884595
136	0xbd496515	-0.049168665
137	0x3d3b0f27	0.045668747
138	0x3e580814	0.21096832
139	0x3f08d148	0.5344434
140	0x3ec46139	0.38355425
141	0x3bca576c	0.0061749723
142	0x3e76faf6	0.24119172
143	0x3e55aca7	0.20866643
144	0x3d0d8526	0.03455081
145	0x3d1e8921	0.038704995
146	0x3efc75f2	0.49308735
147	0x3bac1cb4	0.005252445
148	0x3d92c259	0.07165975
149	0x3e0475ca	0.12935558
150	0x3be69927	0.0070373
151	0x3d9abb89	0.07555301
152	0x3a5aa5e9	0.00083407626
153	0x3d933c78	0.07189268
154	0x3e4c274e	0.19936869
155	0xbd538238	-0.05163786
156	0xbc1998ae	-0.009374781
157	0x3e913e67	0.28367922
158	0x3e86e1e5	0.2634422
159	0x3d3aaf79	0.0455775
160	0xbcb41eda	-0.021987367
161	0x3d250791	0.04029042
162	0xbe520a17	-0.20511661
163	0x3e45b465	0.19307096
164	0x3f00c728	0.5030389
165	0x3d898033	0.06713905
166	0x3e1d03c0	0.15333462
167	0x3dbbef78	0.091765344
168	0xbc6861be	-0.01418346
169	0x3e050ccd	0.12993164
170	0x3e6abbb5	0.22923167
171	0x3ed7a871	0.42120698
172	0x3e1164f7	0.14198671
173	0x3d68e544	0.05685927
174	0x3dabdbda	0.08391543
175	0xbd4a681f	-0.049415704
176	0xbd826516	-0.06366937
177	0x3f00aab0	0.5026045
178	0xbcf69650	-0.030100971
179	0x3efa472d	0.48882428
180	0x3e209574	0.15682012
181	0x3ef4d98b	0.47822222
182	0x3b976c86	0.0046210913
183	0x3eb4ccb8	0.35312438
184	0x3cf39afc	0.029736988
185	0x3db25c92	0.08709063
186	0x3e877b3e	0.26461214
187	0xbbbe2734	-0.005803013
188	0x3d011950	0.03151828
189	0x3ea72a6a	0.32649547
190	0xbca5369e	-0.020167645
191	0xbcf40ba9	-0.029790716
192	0x3f10577e	0.563835
193	0x3e8c789d	0.2743577
194	0x3daa5abc	0.083180875
195	0x3e61b439	0.22041406
196	0x3ce500d4	0.027954496
197	0x3ebe556a	0.3717454
198	0x3f0164d5	0.5054448
199	0x3ea15003	0.31506357
200	0x3e0e7cbf	0.13914774
201	0xbcfcc550	-0.030855805
202	0xbcca5fbd	-0.024703855
203	0x3ddf1c93	0.10894122
204	0x3ef3f93b	0.47651085
205	0x3e0a0ccd	0.13481446
206	0x3e241a70	0.1602571
207	0x3e982d0d	0.2972187
208	0x3db7e01a	0.08978291
209	0x3e7e4f8c	0.24835032
210	0x3eddf2aa	0.433492
211	0x3ceeaea3	0.029136008
212	0x3d5ce2ac	0.05392711
213	0x3dc944ee	0.098276004
214	0x3e4f96f0	0.20272422
215	0xbcbe2013	-0.023208654
216	0x3d5baebe	0.053633444
217	0x3ec93b20	0.3930292
218	0x3ea78fcc	0.32726896
219	0x3ed32d4d	0.412455
220	0x3e0f484f	0.13992427
221	0x3dd93aaa	0.106068924
222	0x3d8e361c	0.06943914
223	0x3ef622a9	0.4807332
224	0x3ebf6cff	0.37387845
225	0x3dfe651b	0.12421628
226	0x3e57d91d	0.21078916
227	0x3ebc6738	0.367975
228	0x3dca437c	0.09876153
229	0x39207ddc	0.00015305675
230	0x3dffb223	0.12485149
231	0x3dace70c	0.08442506
232	0x3e1f65a8	0.15566123
233	0x3c4c39ed	0.012464982
234	0x3d1362e4	0.03598298
235	0x3e929c47	0.28634855
236	0x3da8e856	0.082474396
237	0x3b8548bc	0.0040675085
238	0x3da459e1	0.080249555
239	0x3f101f73	0.5629799
240	0xbca2cba8	-0.019872501
241	0x3cbf9a11	0.023388894
242	0x3d7d9359	0.0619081
243	0xbb8e5f73	-0.0043448745
244	0xbc3ce068	-0.011528112
245	0x3eec9116	0.46204442
246	0x3e0e5143	0.13898186
247	0x3dff152d	0.12455211
248	0x3f0889d8	0.5333533
249	0x3dfb659b	0.12275239
250	0x3f04441e	0.5166644
251	0x3d325fde	0.043548457
252	0x3eb98809	0.362366
253	0x3ccb553b	0.024820914
254	0x3d019ef8	0.031645745
255	0xbdc3c5ec	-0.09559235

Digits/Digit6/Conv/Conv2D_bias f4 [11]
0	0x3e4a5f01	0.19762804
1	0xbe006b9b	-0.12541048
2	0x3d57b2a8	0.052660614
3	0x3ce904db	0.028444698
4	0x3c9c2a39	0.019063102
5	0x3d499d3d	0.04922222
6	0x3aa49b8a	0.0012558561
7	0x3dbd3f36	0.09240572
8	0xbd8ea8f9	-0.06965823
9	0xbca4b3c7	-0.020105256
10	0xbe6389b5	-0.222205

Digits/Digit6/Conv/weights f4 [11, 1, 1, 256]
0	0xbebdfe9d	-0.37108317
1	0xbca02bfd	-0.019552225
2	0x3dfc34eb	0.12314781
3	0x3e9ade5c	0.30247772
4	0x3daf0a8b	0.08546933
5	0xbea0e659	-0.3142574
6	0xbe9df6a3	-0.3085223
7	0x3ea6bbd2	0.3256517
8	0x3e699c3a	0.22813502
9	0x3e821779	0.25408533
10	0xbd4baa1b	-0.049722772
11	0xbe6fed8d	-0.23430462
12	0x3d968218	0.07349032
13	0x3e2175c6	0.15767583
14	0x3e8115f3	0.25212058
15	0x3de0b44a	0.109718874
16	0xbe8f3aab	-0.27974448
17	0x3d92882b	0.07154878
18	0xbe2dc01d	-0.16967817
19	0x3e1b1810	0.15145898
20	0x3e55d527	0.20882092
21	0x3e01fd96	0.12694392
22	0x3e897f25	0.26854816
23	0x3e492da0	0.19646311
24	0x3e2bf42a	0.1679236
25	0x3d342f4e	0.043990426
26	0x3c3d42c5	0.011551564
27	0xbed4aa8d	-0.4153637
28	0x3e6bebe3	0.23039202
29	0x3d08758f	0.033315238
30	0xbe1968d3	-0.14981394
31	0x3e55a3d6	0.2086328
32	0xbed859f9	-0.42256144
33	0xbe993861	-0.29925826
34	0xbd752968	-0.05985394
35	0x3e24ba17	0.16086613
36	0xbe509e2f	-0.20372842
37	0xbe5fa291	-0.21839358
38	0xbe8515d2	-0.2599321
39	0xbd589794	-0.05287893
40	0xbc118d60	-0.008883804
41	0xbed66355	-0.4187266
42	0x3e3c2026	0.18371639
43	0xbe45c560	-0.19313574
44	0x3e1bcdf1	0.15215279
45	0x398a1314	0.00026335625
46	0x3e19c588	0.15016758
47	0x3d5859ad	0.052819896
48	0x3df1b042	0.11801197
49	0xbe48f514	-0.1962474
50	0x3e52e063	0.20593409
51	0x3e365380	0.1780529
52	0x3e2be137	0.16785131
53	0xbdceefcf	-0.101043336
54	0x3d8ea24c	0.069645494
55	0xbd30c456	-0.04315599
56	0x3e2c894e	0.16849253
57	0xbdfd25df	-0.12360739
58	0x3e9e7c49	0.30954197
59	0x3da59719	0.0808546
60	0xbe8a778f	-0.2704434
61	0xbead4879	-0.33844355
62	0xbe72fd12	-0.23729351
63	0x3d525928	0.051354557
64	0x3e1c419f	0.15259407
65	0x3e4b998c	0.19882792
66	0x3dbe6eee	0.09298502
67	0xbe2d374d	-0.16915627
68	0xbeadefe5	-0.33972088
69	0xbe15702c	-0.14593571
70	0xbe4cdbf4	-0.2000578
71	0xbeb8439d	-0.35989085
72	0xbd3e9501	-0.04652882
73	0xbe9a8789	-0.3018153
74	0x3e9ae925	0.30256
75	0x3d88c9f6	0.06679146
76	0x3e81366f	0.25236842
77	0xbe876aae	-0.26448578
78	0xbde4d087	-0.11172586
79	0xb9424f34	-0.00018530787
80	0xbed18f1b	-0.40929493
81	0x3e980f86	0.29699343
82	0xbe6669ce	-0.22501299
83	0xbd929bd7	-0.0715863
84	0xbe9b99cf	-0.30390784
85	0x3e457f43	0.19286828
86	0x3dd515e2	0.104045644
87	0xbd7e32bf	-0.062060114
88	0x3e660e29	0.22466339
89	0x3ea19fd2	0.31567246
90	0x3dd8d168	0.10586816
91	0xbe95d469	-0.2926362
92	0x3e38a218	0.18030584
93	0xbe862141	-0.26197246
94	0x3e5c0e2b	0.2148978
95	0xbe1f98c3	-0.15585618
96	0xbc91dc7a	-0.017805327
97	0x3e236027	0.15954648
98	0xbd36a580	-0.044591427
99	0xbe4f8ed4	-0.20269328
100	0xbd074ae7	-0.033030417
101	0x3de25061	0.11050487
102	0xbcba7bf1	-0.022764178
103	0xbd647c32	-0.055782504
104	0x3e99a7b3	0.30010757
105	0x3e449e20	0.19200945
106	0xbe0d77c3	-0.13815217
107	0xbd827113	-0.063692234
108	0xbd4a5cb7	-0.049404826
109	0x3e8c1023	0.2735606
110	0x3e2115fc	0.15731043
111	0x3e10fb70	0.14158416
112	0xbe126485	-0.14296158
113	0x3d90bf7c	0.07067773
114	0x3e97009c	0.29492652
115	0xbe85227f	-0.2600288
116	0xbcbf1444	-0.023325093
117	0x3dfbcc5d	0.122948386
118	0x3de9ec50	0.11422026
119	0x3d4fc663	0.050726306
120	0xbd17417c	-0.036927685
121	0x3e183414	0.14863616
122	0x3dd0932f	0.10184323
123	0x3e356e8a	0.17717949
124	0x3e1a3521	0.1505933
125	0xbc6435ae	-0.013928814
126	0x3da3410d	0.07971392
127	0xbe917f86	-0.28417605
128	0x3c6fbfdb	0.014633144
129	0xbdad8209	-0.08472068
130	0x3d29a39f	0.041415807
131	0xbe5a238b	-0.21302621
132	0xbd7d1618	-0.06178865
133	0x3dad7d46	0.0847116
134	0xbdae8a47	-0.08522468
135	0x3ec5e990	0.38654757
136	0x3dddd35f	0.108313315
137	0xbe95ddd7	-0.29270813
138	0xbda43ed8	-0.08019799
139	0xbebd179a	-0.3693207
140	0xbea4eb4c	-0.32210767
141	0x3e8d5053	0.27600345
142	0x3d7bd528	0.06148258
143	0x3dac7cc5	0.084222354
144	0x3d1e869d	0.038702596
145	0x3eb9809c	0.36230934
146	0xbe95d4ca	-0.29263908
147	0x3c8b61c6	0.017014395
148	0xbdde3ff0	-0.10852039
149	0x3dec2bbe	0.11531781
150	0xbe7dacec	-0.24772996
151	0x3e1d5132	0.15363005
152	0x3d3d6429	0.0462381
153	0x3cebece9	0.028799491
154	0x3ec697a8	0.3878758
155	0x3dcae58e	0.09907065
156	0x3e993489	0.29922894
157	0x3e6f2901	0.23355485
158	0xbe971d9f	-0.29514787
159	0x3e86b211	0.2630773
160	0x3daf46de	0.08558439
161	0xbdc1ac56	-0.094566986
162	0x3c0df8a6	0.008665239
163	0x3e0c56b7	0.13704954
164	0xbe0c7798	-0.13717496
165	0x3dbe4940	0.09291315
166	0xbe2fc482	-0.17164806
167	0xbeb0454b	-0.34427866
168	0xbeabfb88	-0.3359034
169	0x3e21bef5	0.157955
170	0x3e5cccee	0.2156255
171	0xbe705d0c	-0.23472995
172	0xbd15434a	-0.036441125
173	0x3d8a9d09	0.06768233
174	0x3e5e1e83	0.21691327
175	0x3b87be05	0.004142525
176	0x3ba00a1e	0.0048840186
177	0xbedf2e15	-0.43589845
178	0x3d90c78e	0.07069312
179	0xbe84f1e4	-0.25965798
180	0x3e3fb4e9	0.18721355
181	0xbe60c50f	-0.21950172
182	0x3d712cf2	0.058880754
183	0xbe213618	-0.15743291
184	0x3e997ff1	0.29980424
185	0xbee2da50	-0.44307184
186	0xbe5a1308	-0.21296322
187	0x3e32878e	0.17434523
188	0xbc950b00	-0.018193722
189	0x3e1d5ad4	0.1536668
190	0x3e8a9bcb	0.27071986
191	0x3e15400c	0.14575213
192	0xbe706fc6	-0.23480138
193	0x3d89ee49	0.067349024
194	0x3dc8fd57	0.09813946
195	0xbe58fc15	-0.21189912
196	0xbd429d8f	-0.04751354
197	0xbe4de823	-0.20108084
198	0xbdf76b9f	-0.12081074
199	0x3db52dac	0.08846602
200	0x3d94c1d8	0.07263535
201	0x3e785231	0.24250104
202	0x3e297cb5	0.16551478
203	0x3e8c9b21	0.27462104
204	0xbe89b682	-0.26897055
205	0xbcf4c1cf	-0.029877571
206	0x3c50be77	0.012740723
207	0x3e3393bc	0.17536825
208	0xbdfd7a0d	-0.12376795
209	0xbd925c61	-0.07146526
210	0x3bfa0b8a	0.00763077
211	0x3e5a5227	0.21320401
212	0xbda30e8c	-0.07961759
213	0x3e272090	0.16321015
214	0x3e2f2cea	0.17106977
215	0xbc8e06a9	-0.01733716
216	0x3c1db609	0.00962592
217	0x3e6ec7e9	0.23318447
218	0x3e530db1	0.20610692
219	0x3da0781d	0.0783541
220	0x3d889cb7	0.06670516
221	0xbdb9386a	-0.09043963
222	0xbc90f981	-0.017697098
223	0xbe895b39	-0.2682741
224	0xbe83774f	-0.25676963
225	0xbd95da13	-0.07316985
226	0xbeb2d74e	-0.3492989
227	0xbe179c71	-0.14805771
228	0xbe573314	-0.21015579
229	0x3e1a3806	0.15060434
230	0x3da094f0	0.078409076
231	0xbd18ade3	-0.037275206
232	0xbe813725	-0.25237384
233	0xbe703db3	-0.23461036
234	0x3e3e3356	0.1857427
235	0xbc9e0cf9	-0.019293295
236	0xbe79c4d7	-0.24391495
237	0x3dd609c0	0.104510784
238	0xbe91ac0a	-0.28451568
239	0xbdeede9b	-0.116635524
240	0x3e3b70d5	0.18304761
241	0xbdbfaa38	-0.093586385
242	0x3eb3e164	0.35132897
243	0x3da7ae54	0.08187547
244	0xbd8b7bb1	-0.06810702
245	0xbe8b985f	-0.27264687
246	0x3daeda8a	0.08537777
247	0x3dac38d8	0.084092796
248	0x3e4888aa	0.19583383
249	0x3e0257a5	0.12728746
250	0x3e1c42ec	0.15259904
251	0xbc9aa052	-0.018875275
252	0x3dded6b8	0.10880798
253	0x3e6b4072	0.22973803
254	0xbdf8fc98	-0.121575534
255	0x3dc303f2	0.09522237

MobilenetV1/Conv2d_0/weights f4 [8, 3, 3, 3]
0	0xbc828bef	-0.015935866
1	0xbdf6492a	-0.12025674
2	0xbd3a50ed	-0.045487333
3	0x3d8f1500	0.06986427
4	0xbe0b8fc4	-0.13629061
5	0xbd4520c1	-0.04812694
6	0xbc3a8e09	-0.011386403
7	0x3d1d1a3c	0.038355097
8	0xbd18c306	-0.037295364
9	0x3ce76027	0.028244091
10	0xbe395141	-0.18097402
11	0xbcbb5964	-0.022869773
12	0xbd9ac362	-0.075567976
13	0xbe5b2636	-0.21401295
14	0xbd40a586	-0.047032855
15	0xbdceadee	-0.10091768
16	0xbd44c5b6	-0.048040114
17	0xbd014acb	-0.03156547
18	0x3ccfb9d9	0.025357174
19	0xbdcc09bf	-0.099627964
20	0x3d20e45f	0.03928029
21	0xbe0b20c6	-0.13586721
22	0xbda1940e	-0.07889567
23	0x3b02b2ea	0.0019943067
24	0xbda95f78	-0.08270162
25	0xbda2e210	-0.07953274
26	0xbbb15be4	-0.0054125655
27	0x3ec61680	0.3868904
28	0x3f3aac58	0.72919226
29	0x3e197142	0.1498461
30	0xbcc296d9	-0.02375357
31	0xbe86c0e9	-0.26319054
32	0x3b4c58f8	0.003118096
33	0xbeab3d4a	-0.33445197
34	0xbf0390a9	-0.5139261
35	0xbe43cec3	-0.19121842
36	0x3eaf8dfb	0.3428801
37	0x3f550af2	0.83219826
38	0x3e6e36df	0.23263119
39	0x3d11626d	0.035494257
40	0xbe34fdbe	-0.1767492
41	0x3e1effdf	0.15527295
42	0xbed12958	-0.40851855
43	0xbf3ed2a4	-0.7454016
44	0xbeaff80b	-0.3436893
45	0x3e31dcff	0.1736946
46	0x3f189a3b	0.59610337
47	0x3e3a5878	0.1819781
48	0x3e07f0a3	0.1327539
49	0x3da0f1bb	0.078586064
50	0x3e1a0ac5	0.15043171
51	0xbe960e73	-0.293079
52	0xbf11dcc5	-0.5697749
53	0xbeaed668	-0.34147954
54	0xbd633676	-0.05547186
55	0xbd66a45b	-0.056309085
56	0xbc8d76f7	-0.01726864
57	0xbd3a0d83	-0.045423042
58	0xbd89d001	-0.06729127
59	0xbbaa77aa	-0.0052022533
60	0x3be8e781	0.0071076755
61	0xbcc59492	-0.024118695
62	0x3bc97249	0.006147657
63	0xbd81e855	-0.06343142
64	0xbd826f33	-0.06368866
65	0xbd59e046	-0.0531924
66	0xbd7af658	-0.061270088
67	0xbe308457	-0.17237984
68	0xbd8dbbfb	-0.0692062
69	0xbcc492bc	-0.02399575
70	0xbd8e9060	-0.06961131
71	0xbc475846	-0.012167042
72	0xbbd663d9	-0.0065426645
73	0xbcdc2428	-0.02687271
74	0xbbaeaa90	-0.005330391
75	0xbd84b27f	-0.06479358
76	0xbdcdf2a9	-0.100560494
77	0xbd1447fe	-0.03620147
78	0xbcd0e6aa	-0.025500614
79	0xbd463db2	-0.04839868
80	0xbc97c61f	-0.018527089
81	0x3ccaac66	0.02474041
82	0x3ca51ac5	0.020154366
83	0x3d23cbeb	0.039989393
84	0x3c695352	0.0142410565
85	0x3d4c5a2d	0.049890686
86	0x3d1fbfb7	0.039001193
87	0xbcb49e83	-0.02204824
88	0x3c59c8ff	0.01329255
89	0xbd1508f8	-0.036385506
90	0x3d2eca2c	0.042673275
91	0x3defd584	0.11710647
92	0x3cfb261a	0.030657817
93	0x3da330c4	0.07968286
94	0x3e5c896b	0.21536796
95	0x3df3ddc7	0.11907535
96	0x3d18674e	0.037207894
97	0x3d9e8684	0.077405006
98	0x3cbe0056	0.02319352
99	0xbc29cafd	-0.010363338
100	0x3d7e1568	0.062032133
101	0xbd9527b1	-0.07282961
102	0x3d56f59d	0.05248033
103	0x3db22e97	0.087002926
104	0x3cd4be8a	0.025969762
105	0x3d8eb97c	0.06968972
106	0x3da4faff	0.08055686
107	0x3d58699c	0.052835092
108	0xbcaea19e	-0.0213173
109	0xbe061a19	-0.13095893
110	0xbd24acb2	-0.040203758
111	0xbd040954	-0.03223546
112	0xbdc35fbf	-0.095397465
113	0xbdbc9da9	-0.09209759
114	0x3c9af1b8	0.018914089
115	0x3d5e1158	0.05421576
116	0x3ca1dbec	0.019758187
117	0xbd6a32a8	-0.057177216
118	0xbe392e16	-0.18083987
119	0x3c076c4a	0.008265564
120	0xbdd04b56	-0.10170619
121	0xbe8dd44a	-0.27701026
122	0xbdba6382	-0.09101011
123	0xbd59d825	-0.053184647
124	0xbde2eeed	-0.11080728
125	0xbda28498	-0.079354465
126	0xbc4ea14a	-0.0126116965
127	0xbbc7873f	-0.0060891206
128	0x3dbb6351	0.091498025
129	0xbd602cf3	-0.054730367
130	0xbe155e4e	-0.14586756
131	0x3c8fb3cf	0.017541794
132	0xbd818036	-0.063232824
133	0xbdaf0b09	-0.08547027
134	0xbd50016b	-0.050782602
135	0xbde05923	-0.109545015
136	0xbebfc12c	-0.37452066
137	0xbe455cd0	-0.19273686
138	0xbe55563b	-0.20833676
139	0xbf3575ec	-0.7088306
140	0xbe8a8dfb	-0.27061448
141	0xbe2a00c3	-0.16601853
142	0xbeb0f3e6	-0.3456108
143	0xbda89769	-0.08232004
144	0x3dbf2f42	0.093351856
145	0x3ea4f7e5	0.3222038
146	0x3e4e8b61	0.20170356
147	0xbca850d0	-0.020546347
148	0x3c687835	0.014188816
149	0x3dfb0307	0.12256437
150	0xbe1567b8	-0.14590347
151	0xbe8ec1d0	-0.27882242
152	0xbe0975e1	-0.13423873
153	0x3d34b5c7	0.04411867
154	0x3e58e96e	0.21182796
155	0x3d2710d0	0.040787518
156	0x3e5ace95	0.21367867
157	0x3f00c7f5	0.5030511
158	0x3e187695	0.14888985
159	0x3e7e42e4	0.24830204
160	0x3ee9a41e	0.45633024
161	0x3e119820	0.14218187
162	0xbd8415d5	-0.06449477
163	0xbd993a9b	-0.07481881
164	0xbd655762	-0.055991538
165	0x3d3696d9	0.044577453
166	0x3dff450e	0.12464343
167	0x3c31be99	0.010848665
168	0x3d3ae1ff	0.045625683
169	0x3d877ad1	0.06615222
170	0x3d9535e7	0.07285672
171	0x3d091fe0	0.033477664
172	0x3df9193c	0.12163016
173	0x3c080bf1	0.008303628
174	0x3d83f0dc	0.06442425
175	0x3e24f21e	0.16107985
176	0x3d8af6da	0.067853644
177	0x3cf89fc9	0.030349629
178	0x3d2ccb30	0.042185962
179	0x3d3b497c	0.045724377
180	0x3d7f2462	0.062290557
181	0x3e0d3e0b	0.13793199
182	0x3c6d6f1c	0.014491823
183	0x3cac4a3c	0.021031491
184	0x3d11fe86	0.035643123
185	0x3d3044b9	0.04303429
186	0xbd360409	-0.044437442
187	0xbdb483ae	-0.088141784
188	0xbd52f46f	-0.05150264
189	0x3ce5e86e	0.028064933
190	0x3de2f2dd	0.11081479
191	0x3b75f391	0.003752921
192	0x3ceee1d4	0.029160418
193	0x3e02ae8e	0.127619
194	0x3d480ac9	0.04883841
195	0xbc92d40b	-0.017923376
196	0x3bb2abb1	0.005452596
197	0x3c2e5270	0.010639772
198	0x3c7443af	0.014908715
199	0x3da8a4b2	0.08234538
200	0x3c0bc3a0	0.008530527
201	0x3de1041a	0.109871104
202	0x3e549c28	0.20762694
203	0x3dec1a39	0.11528439
204	0x3d45c454	0.048282936
205	0x3d885bf0	0.06658161
206	0x3ccda05c	0.02510088
207	0xb96a78c3	-0.00022360966
208	0x3a4011ed	0.000732689
209	0xbc818092	-0.015808377
210	0x3d5c8edc	0.05384718
211	0x3dae63e8	0.08515149
212	0x398b2455	0.00026539215
213	0x3d92f851	0.07176269
214	0x3d1eeae0	0.038798213
215	0x3d355eba	0.04427979
